experiments/results/approx_tpe/weighted.npy (npy, 28832 bytes, 1 tensors)

array f8 [1797, 2]
00000000: a15b 8dc8 182b 1ec0 893d 7578 21ab 23c0
00000010: 42c0 b706 2f25 3040 04ae 8350 8de7 2e40
00000020: 72a5 71fb 270d 2cc0 d68e 7aee a3fd 4140
00000030: b62f f884 bf7d 28c0 547b adf4 0be2 3b40
00000040: 24c8 c74d 9c49 3a40 910c c42f 786a 0440
00000050: 7442 7e07 f257 38c0 f5fc 867b a39d 3e40
00000060: e6b0 1205 f80e 3540 7a4a bb87 4700 38c0
00000070: 74f0 0066 7dd7 2cc0 847a 7b33 fee2 3fc0
00000080: d71a f279 1891 3540 f2f8 98e6 4088 4040
00000090: adff 6e73 838d 39c0 8b21 bf02 f333 39c0
000000a0: b4a4 984e ab3e 4040 cc8d 5e3e bde9 3240
000000b0: 7276 eb13 b6ed 0440 329c d094 343c 43c0
000000c0: 9528 5822 391d 20c0 61b3 a39f a56d 42c0
000000d0: eee0 9077 00b7 35c0 58df 3f63 117d 3fc0
000000e0: eb59 3e8a 97b4 28c0 7e0a b46f 6acc 3a40
000000f0: 19d9 b905 ba2e 41c0 a036 c448 5fd9 1640
00000100: 4927 5446 c6bc 3c40 b4a3 9491 36dd 3240
00000110: 1739 3afc c391 40c0 569d de3b b304 3440
00000120: 15f3 7a88 82d8 3440 d0db 5f20 c864 2840
00000130: fefa d9a9 e8f4 4240 14a1 0de9 ab07 04c0
00000140: 4071 960f 4f9d 3040 c008 bb99 5bfd 31c0
00000150: 2b73 e11f 8f83 2c40 0dec b2b5 f3ab 3f40
00000160: 2a08 f373 6982 fbbf 4d1f 8691 4d37 3dc0
00000170: db6d 9588 d7e6 42c0 2c13 212e 319b 2fc0
00000180: 3700 25ae 5c85 3cc0 09da b0c7 c803 3740
00000190: 5c36 b05c b581 3b40 9ab6 2dfc 872b 3c40
000001a0: 2eae 966e a958 42c0 a9e8 820a b24f f23f
000001b0: 5dd7 b342 f797 3040 f70e 86ed 2f86 2640
000001c0: 2a3b 4c58 740f 3040 3bce ae3d 32e0 3540
000001d0: 9dbd eda1 12e2 2fc0 aa78 dd66 3a61 32c0
000001e0: e326 783b c8d7 2b40 21a4 2312 aed2 30c0
000001f0: d04e adf1 6e3e 43c0 f6b7 451f 9bf0 1940
00000200: b5c7 734e 61e9 4240 d355 b1de 24cd 3040
00000210: 5682 2aa8 79de 32c0 a966 877e 469c 3240
00000220: a56e c0b6 8e9b 2ec0 755e 4514 ede9 3f40
00000230: 21ad 2bc5 6ef2 c8bf 0373 21d4 2f0c 3d40
00000240: efa8 0608 0948 30c0 88d2 d507 b3fb 3e40
00000250: ff24 3630 eb9d 3ac0 8dd4 853f b835 0b40
00000260: 3669 6a42 e902 2240 ad39 122d 08ff 3b40
00000270: 1f69 ffa4 b2c1 3740 dd31 ef35 4907 3c40
00000280: fc87 e248 1550 4140 144a e94e 8d9b 2740
00000290: 1a2d 355d d6aa 01c0 0639 ba03 d6b7 38c0
000002a0: a72b a6fb 8331 23c0 0c43 e4e9 5021 4140
000002b0: 791d e281 9617 3fc0 d9c3 8144 1193 e3bf
000002c0: 971c 6ed8 05c2 24c0 f38c 7d34 0bc2 42c0
000002d0: eaa0 0f70 aa0f 14c0 a38f 7539 98b9 4740
000002e0: fe4d 12af f442 4140 bec0 57e4 221e 40c0
000002f0: aeb3 2deb 411d f9bf 9ec2 30c2 4bf3 3dc0
00000300: a800 0edc 3937 3040 cff1 d1cc 7bac 3440
00000310: 6370 d14c 8478 3140 e6d5 a4a4 3001 2940
00000320: 5d2f 2150 d208 4340 3575 c075 c914 0f40
00000330: f8c4 052a 5418 3fc0 a989 86a9 6a1a 3540
00000340: b53c d1a3 1137 05c0 bbfd d35b d975 18c0
00000350: 0924 1539 6f3c 43c0 731d 8af2 5ac4 0840
00000360: 0138 b213 21c6 f9bf 1ae0 7039 6baf 3040
00000370: 7ca8 68f1 6c66 41c0 29c9 5ce5 9c38 e73f
00000380: 4b60 a8b1 a948 33c0 0e9e a10b 5763 3340
00000390: d2c9 1056 1158 3fc0 418c 486e f16d 1d40
000003a0: ba97 7d9c f311 34c0 7b7f a814 8588 3140
000003b0: ebea 4a1f d109 4240 6501 4b4e 31c2 0ec0
000003c0: b83f 67d0 cbcd 1ac0 90f8 e944 23f2 42c0
000003d0: d636 2ea2 6eee 4240 e1ae fa2d c812 3cc0
000003e0: 8dcd f221 4e16 36c0 f361 f010 6b97 3dc0
000003f0: b626 6ac5 3bf2 42c0 b98e 3a46 ae01 f0bf
00000400: 0783 2a96 0af5 32c0 fd04 e461 dca6 41c0
00000410: 828c f951 8e25 3ec0 62d3 bc66 969e 3440
00000420: f071 f60d a39a 1140 d5ba 4c41 6d56 4740
00000430: 0faa b5de d017 43c0 1bcd 9230 b3b8 1b40
00000440: b428 ebd0 6d02 43c0 df1b b1c3 5fb5 f03f
00000450: 7910 bfd9 dd3d 3b40 9457 0cc3 1811 3b40
00000460: 94e3 3176 54bd f7bf ef91 d3c5 7fe6 4240
00000470: 8a92 afb3 ddae 2340 8a2e d8dd 6fb8 4140
00000480: 6f54 be39 2299 42c0 4fe5 3ce1 c485 23c0
00000490: ba38 ebf6 1d88 2cc0 1384 daba 22fa 2fc0
000004a0: d2a8 2f11 46c5 30c0 4d30 c327 39f5 30c0
000004b0: 89b2 9d61 6c36 4340 3043 715e 644f 2040
000004c0: 0da7 fa00 7951 41c0 71de d213 d409 35c0
000004d0: c677 775a 04a0 3540 aee7 229c 8111 2f40
000004e0: 9ae6 d886 8dbc 3b40 1920 33e1 7078 cfbf
000004f0: bde1 d7d3 55ea 41c0 20f4 36dc 80ae d53f
00000500: f9f7 278b b338 4340 779f 7b89 2bd2 fdbf
00000510: 1f87 800f 92bd 35c0 351c d85d 3a59 3ec0
00000520: 3254 f688 9cc8 35c0 a8a8 a014 7ba7 4040
00000530: 948d 1dfe 4b51 23c0 4a1b 1759 b707 3d40
00000540: 836f d5c3 766e 42c0 11e2 9626 dd1f e33f
00000550: 34a6 3cec 07e1 3840 ae06 9c80 b607 3c40
00000560: 0692 6aac 70f8 e43f abda e758 b3de 22c0
00000570: e1f1 01d3 4fd5 01c0 856d db37 82f1 2740
00000580: c49d 06f1 3f41 4240 7e6a 0d7d 3a5b 3dc0
00000590: 2dde 8e76 3ba2 1840 dfcf 6c39 da82 3bc0
000005a0: 7834 bf5c 4c32 3ac0 7ddf 107f 0590 3ac0
000005b0: 94a7 d6e4 57ea 40c0 5c8a 52f2 f7fe 31c0
000005c0: b241 fd73 fcad 2c40 45cf 3b3d 5557 3540
000005d0: 23ab c437 2594 3540 59f3 2db8 aa58 3f40
000005e0: 842c 11ce 54c6 1b40 07b8 62a4 9973 43c0
000005f0: 4d36 d654 277b 36c0 87cf cd1d d081 4040
00000600: 3d9f 9a3c e8f4 42c0 b6bd 0cb6 572a 30c0
00000610: f012 2ab2 4b45 42c0 de27 2183 26ce 0640
00000620: c668 2f82 f9ba 31c0 53ac dd1b 6d00 34c0
00000630: bc9c 54a1 f175 42c0 d347 5808 38a4 efbf
00000640: 53b8 5e1d 358a 41c0 2f72 ca83 34b5 d33f
00000650: 4e8b dc5b 3754 00c0 1c58 8ad8 5948 4240
00000660: 7690 7ffb 759d 2340 c40f b10a 1bc2 3bc0
00000670: 3629 242d 561c 41c0 f0b5 fe1a 2e47 34c0
00000680: f1a0 ab40 3c9c 3c40 807b ae37 b50d 2c40
00000690: e46c be10 81d7 3940 f4b8 2756 5328 3140
000006a0: b3cf 1f36 a921 3bc0 8434 1b8d 4854 39c0
000006b0: 7a5c 94a7 a481 1640 03d0 8ecc 0a9e 3cc0
000006c0: 4f68 6630 5835 40c0 b441 9281 e5eb 3440
000006d0: d290 e65e 85f9 e4bf f42d 71b6 4611 16c0
000006e0: 0579 a1b9 fff8 2ec0 da13 0705 8860 2c40
000006f0: 8ea9 03a6 82b1 23c0 ef7d 3bfd decf 42c0
00000700: 50eb 2ab9 f224 42c0 f7e1 12fe 4ed2 03c0
00000710: 2b1e 9a86 dc8e 3a40 2d46 1e3d 4124 3cc0
00000720: 5f8c d0f1 7725 26c0 b318 3d3e 5dec 4040
00000730: 78b3 7ef8 7807 34c0 c30a ca39 26c4 3bc0
00000740: e583 f79e b663 3440 31ed 1ef7 64e8 3e40
00000750: 5318 a60f 8cde 38c0 14ab 9c1c 997e 0040
00000760: 0041 ec14 c743 2ac0 223a 8682 a35c 3bc0
00000770: 1b86 2ea0 70c2 25c0 bd17 7cb2 6c30 4240
00000780: ccf3 a987 d314 4040 f426 49c9 7daa 02c0
00000790: 48c2 50de 4df3 3ac0 f3f6 8452 c315 3ac0
000007a0: a809 58bc f400 d5bf a9b0 aada 6066 23c0
000007b0: dfc2 48a3 fcd7 1640 5e40 cab3 5d1d 4740
000007c0: cb89 97a9 c053 3640 545a 4d94 81b9 3e40
000007d0: eb8a b960 7853 3ec0 1cf0 3576 9afa 1b40
000007e0: f169 8546 20ea 3f40 b153 7068 be7b 2ec0
000007f0: f2e7 3f55 5a00 4140 72a6 a99f 2ff7 f73f
-7.542086728694728 -9.834239734946793 16.14524881349667 15.452250019144238 -14.025695664999805 35.98156529411578 -12.24560180215472 27.88299493060488
26.287541257166723 2.551987050219005 -24.34353682358274 30.615775795417864 21.058471982062564 -24.00109146425755 -14.420878589262635 -31.886691301008355
21.566779729468944 33.06448061436994 -25.552787031745243 -25.202926799452637 32.48960287526407 18.913043878635833 2.616069942115069 -38.47035465417902
-8.057076524030245 -36.85661693089674 -21.714850876684913 -31.488546565145356 -12.352718658553348 26.798499089675254 -34.365051952119934 5.712277543044962
28.737400432153013 18.86411390189069 -33.13879349558754 20.01835989174773 20.845741777436235 12.196839343739981 37.913350325999986 -2.5037458617481523
16.614487623433206 -17.989678962862627 14.256951328535783 31.671687465841433 -1.7193388489981865 -29.21602735065908 -37.80345256134361 -15.803109590089285
-28.52094543841687 23.014782410313305 27.506673615475265 28.170043717537375 -36.692670653891 1.1444569025611975 16.59361664667755 11.262084410299833
16.06036903248893 21.875766616036554 -15.941548404952124 -18.379797391004708 13.921449526230793 -16.822968610478828 -38.48776074373529 6.484966744070325
37.82328205731702 16.80134383992647 -18.86904383695431 18.610450656945122 -15.30382319544817 31.91377379125193 -0.19489845874282088 29.047604807058644
-16.28138780748935 30.983200540259105 -26.61686993905914 3.401230331679989 9.005685878266927 27.996218506764922 23.75663214908229 28.02846085633961
34.62564955769628 11.80381247136851 -2.208416679559048 -24.71810935303167 -9.596710075411307 34.260281788307196 -31.09214031000508 -0.6117025697732245
-10.378950847092979 -37.51596695070648 -5.0152986058749125 47.44995802154815 34.52309215921194 -32.235439818237396 -1.5696429430638363 -29.950374733833648
16.21572661725864 20.67376403928375 17.470768738873073 12.502324242707754 38.06891824360239 3.8851498793943855 -31.095034243019626 21.1031900361501
-2.6518891142109973 -6.115086970151817 -38.472144255945814 3.095876593437134 -1.6108713883763814 16.68522986417529 -34.80019967661153 0.7256607513175243
-19.283839324576814 19.388046957929014 -31.344014529322358 7.357366297891589 -20.070123463308597 17.5332806502697 36.07669440420235 -3.84482060591124
-6.700972801496327 -37.89170133041728 37.86275126701882 -28.073366998388227 -22.087129709032116 -29.591477450072443 -37.89244907076993 -1.0004103415784995
-18.957192788485397 -35.303600536668434 -30.146702884125723 20.619482441997555 4.401012628714383 46.67520920034955 -38.18606170530631 6.930371054611238
-38.01897632105229 1.04428078119394 27.241666421076363 27.06678408671685 -1.4837231270778135 37.8007743151719 9.841535201246433 35.44091389709236
-37.19635698121498 -9.761267698939859 -14.26585361119611 -15.988546218084627 -16.770600389609918 -16.957903371003614 38.42518253517216 8.155062629056914
-34.63650524367231 -21.038392294866245 21.62506642739006 15.5341919701203 27.736534526781362 -0.24586306568221586 -35.83074424782851 0.3387758398565115
38.44297923518747 -1.8638110514093265 -21.74050995719801 -30.348546853314662 -21.783638534678353 33.308443621107756 -9.658782902820157 29.030141418591747
-36.862999419418905 0.5976396325777974 24.879027142340604 28.030128515331562 0.6553271644120862 -9.434962061216842 -2.2291561589211004 11.971696610961553
36.5097638399416 -29.356361213469874 6.1584299587916975 -27.511142338815144 -26.196477696114442 -26.56258386766375 -33.83080730897123 -17.995970864440423
14.3398166891719 21.341144396879162 21.57869289924123 31.346354972093966 6.94368288020917 -38.90312628574616 -22.481068899438743 33.01416370915745
-37.913337302683864 -16.165400865660295 -36.541372557205136 2.850659393739064 -17.730369698118714 -20.00166486894552 -36.92143646842439 -0.9887962496743462
-35.07974593281747 0.3079348837871149 -2.041121213596319 36.565241878081196 9.807540759393515 -27.758225124576498 -34.22137989297555 -20.278047263322094
28.61029438200143 14.026773204850315 25.841813131800237 17.157521614740247 -27.13148821140903 -25.329232043401603 5.626604669981242 -28.617352280489296
-32.416753816608086 20.92147073574752 -0.6554591039207713 -5.516871309907845 -15.48632602783301 14.188537747491797 -9.84669989390093 -37.623992589997094
-36.28865732761062 -2.477689728690389 26.558052456499507 -28.141620464221138 -11.073180729587135 33.84659555419184 -20.02918961613929 -27.766208278490705
20.389505324772376 30.907790608454153 -24.86932466321043 2.061815475016724 -13.132378248061741 -27.361869962473186 -10.879765515975171 36.37831717547622
32.162705381378686 -2.3332477307748096 -26.950406927792102 -26.085011632406303 -0.32818334954222417 -9.699957688652221 5.710924674335472 46.22942206740912
22.327158545967716 30.7246334732866 -30.326055569933413 6.994729849855528 31.914554984637963 -15.24168707247904 34.00275674457943 1.4978481518577635
